model/new_york_taxi_model.pt (torch, 3903 bytes, 7 tensors)

linear_relu_stack.0.weight f4 [10, 10]
0.14071338 0.15268676 0.051381268 -0.27540198 0.14971726 -0.2510533 0.18885829 0.037764966
0.114436425 -0.0032116317 0.10690992 -0.46428746 -0.060710575 -0.24020109 -0.009463441 0.110100664
0.6180897 -0.059248332 0.028570903 0.0541261 0.020973582 8.501291 4.1521034 -0.12275886
-0.3485232 -0.01810481 0.06683007 0.1192599 0.084474176 0.14069156 0.006834449 4.1399765
2.3864985 -0.28546792 -0.17962101 0.2508223 -0.0029167226 0.022280337 -0.025767976 -0.0006822764
0.007181445 -3.3655977 -2.7538364 0.075777836 -0.24047847 0.715165 0.19118963 0.2026332
0.14663413 0.20389456 0.016197914 6.566719 2.256897 0.012785096 0.01960847 -0.017684706
0.119880676 0.016943939 0.03890678 0.02032795 0.012486503 -3.5808916 -3.0534215 0.055589765
0.068903305 0.1447666 -0.26440105 0.17469762 0.14675117 0.17953573 -0.065305315 0.57982093
0.76480335 -0.32092878 -0.01083417 -0.021699991 0.1362606 -0.27960965 0.037855133 0.035749808
0.051331654 -0.124847926 -0.20157956 -0.1322321 -0.22651207 0.10185213 -0.112137556 -0.2458623
0.039323494 -0.03190002 0.2664141 0.20025387 -0.056025084 0.049904544 -0.1859454 -0.16691627
0.008254939 -0.21015973 -0.17550963 0.20837201
00000000: 2b17 103e eb59 1c3e 2a75 523d 7d01 8dbe
00000010: 7b4f 193e 0f8a 80be 1164 413e 70af 1a3d
00000020: a55d ea3d 3d7a 52bb 97f3 da3d 16b7 edbe
00000030: a7ab 78bd 46f7 75be 8c0c 1bbc 757c e13d
00000040: 203b 1e3f 61ae 72bd 870d ea3c 54b3 5d3d
00000050: cad0 ab3c 4a05 0841 08de 8440 ff68 fbbd
00000060: a271 b2be 8a50 94bc 34de 883d 893e f43d
00000070: cc00 ad3d 7311 103e 83f3 df3b b07a 8440
00000080: 64bc 1840 da28 92be 92ee 37be c86b 803e
00000090: 7c26 3fbb 4185 b63c 5d17 d3bc cbda 32ba
000000a0: 5452 eb3b f465 57c0 db3e 30c0 6931 9b3d
000000b0: fd3f 76be 0e15 373f 37c7 433e 147f 4f3e
000000c0: 4227 163e bcc9 503e 7db1 843c 9022 d240
000000d0: 0071 1040 9478 513c f1a1 a03c 84df 90bc
000000e0: 0084 f53d 04ce 8a3c b75c 1f3d cd86 a63c
000000f0: 3194 4c3c 542d 65c0 426b 43c0 18b2 633d
00000100: 2d1d 8d3d b23d 143e 935f 87be efe3 323e
00000110: f045 163e 37d8 373e cbbe 85bd 256f 143f
00000120: 27ca 433f c750 a4be cd81 31bc 2ec4 b1bc
00000130: e687 0b3e ff28 8fbe fc0d 1b3d 646e 123d
00000140: 2441 523d 45b0 ffbd df6a 4ebe da67 07be
00000150: c8f2 67be d997 d03d 60a8 e5bd 54c3 7bbe
00000160: ac11 213d 98a9 02bd 6e67 883e 5a0f 4d3e
00000170: 8f7a 65bd b568 4c3d 7968 3ebe 19ec 2abe
00000180: b93f 073c 1d34 57be ccb8 33be 795f 553e

linear_relu_stack.0.bias f4 [10]
-0.2650033 -0.265003 0.22023802 0.25639987 0.17313436 -0.123479 -0.14405341 0.01899876
-0.19236712 -0.24422492
00000000: 83ae 87be 79ae 87be 1386 613e d846 833e
00000010: 224a 313e 8fe2 fcbd bd82 13be 4aa3 9b3c
00000020: e3fb 44be 1916 7abe

linear_relu_stack.2.weight f4 [5, 10]
0.08374052 -0.3849981 2.2162488 1.318998 -1.2408077 1.6040812 -1.5957675 0.39929134
0.04441712 0.06516094 -0.27589446 -0.07846242 -0.12660977 -0.092672944 0.0575518 -0.28858748
-0.118340194 -0.09671299 -0.07821493 -0.04749334 0.13650858 0.17877576 0.16384163 -0.15846017
-0.053296387 -0.1312436 0.22657326 0.264581 0.054125845 -0.31488162 -0.09648758 -0.042697575
1.5713223 0.144545 -1.3244065 1.2310853 -1.3687491 0.103205286 0.08132391 0.066765085
-0.21329886 -0.27990144 0.35728064 0.30114824 0.26672205 -0.30449927 -0.11293223 -0.012022251
-0.19889885 0.12871471
00000000: 2680 ab3d 791e c5be 05d7 0d40 edd4 a83f
00000010: c9d2 9ebf 8852 cd3f 1c42 ccbf ea6f cc3e
00000020: baee 353d 1973 853d 0a42 8dbe e8b0 a0bd
00000030: fea5 01be 50cb bdbd 70bb 6b3d bdc1 93be
00000040: 585c f2bd 7611 c6bd 262f a0bd 6088 42bd
00000050: e8c8 0b3e fe10 373e 1ac6 273e 6243 22be
00000060: 504d 5abd b964 06be d202 683e 2977 873e
00000070: 10b3 5d3d 2a38 a1be 489b c5bd a7e3 2ebd
00000080: 1721 c93f 9b03 143e 2786 a9bf 3494 9d3f
00000090: 2c33 afbf 4b5d d33d 268d a63d 22bc 883d
000000a0: 046b 5abe 3e4f 8fbe 7ded b63e 1a30 9a3e
000000b0: cb8f 883e 54e7 9bbe 0349 e7bd faf8 44bc
000000c0: 24ac 4bbe cacd 033e

linear_relu_stack.2.bias f4 [5]
-0.027915454 -0.23481606 -0.31410617 -0.27741706 -0.03531412
00000000: f3ae e4bc 9f73 70be 86d2 a0be 9c09 8ebe
00000010: 8aa5 10bd

linear_relu_stack.4.weight f4 [5, 5]
1.7277204 -0.040126026 0.08280438 0.8780156 -0.19338723 1.761169 0.44491327 -0.16994047
1.864974 -0.3387173 2.2326882 -0.32869843 -0.16368344 1.7207146 -0.33018202 -2.0011716
-0.12143332 0.10013658 -1.2335833 -0.51810455 0.40460935 0.23122305 -0.22507714 0.55296415
-0.1062557
00000000: f125 dd3f 305b 24bd 5895 a93d a1c5 603f
00000010: 4d07 46be fc6d e13f accb e33e e004 2ebe
00000020: 78b7 ee3f 5b6c adbe 5de4 0e40 294b a8be
00000030: a29c 27be 6040 dc3f 9e0d a9be 3213 00c0
00000040: 08b2 f8bd 6814 cd3d 0fe6 9dbf 80a2 04bf
00000050: f528 cf3e bcc5 6c3e 9f7a 66be 0f8f 0d3f
00000060: 979c d9bd

linear_relu_stack.4.bias f4 [5]
1.601962 -6.4989924 2.4934638 2.3501434 0.18860127
00000000: 170d cd3f bff7 cfc0 e994 1f40 c068 1640
00000010: b120 413e

linear_relu_stack.6.weight f4 [1, 5]
2.4000974 -6.5570874 3.610796 -3.3254871 0.56523144
00000000: 329b 1940 a9d3 d1c0 4817 6740 c8d4 54c0
00000010: 02b3 103f
